ex1-dnn-training-quantization/ex1-2-shrinking-and-quantization/ExampleNet.pth (torch, 630124 bytes, 16 tensors)

ConvBnRelu1.conv1.weight f4 [32, 1, 3, 3]
00000000: 6601 583e c232 f03d 58ba 723a 51e1 00be
00000010: 96fb 063e 2c27 853e bae2 9a3e 4543 703d
00000020: 39b6 1bbd b919 72bd ed62 903e 7fb6 06bd
00000030: 7125 56bd 1b11 323e 5e71 1ebc 984c 883e
00000040: 6057 10be 8c76 b4be b0d7 803e 67a0 a4be
00000050: f40d b73d 7ace ac3c 4600 ff3d 577b 49be
00000060: a524 083d eb76 9cbe 47d2 9a3e 74cb 963e
00000070: 5e33 2a3e 15de 943c 7c9b a63d 0505 6e3e
00000080: 9a6c 52be cd06 15be 4c67 c23d d9ac 7cbe
00000090: ed5d 8d3e 8e4f 083e 526c c3bd 3a0b e0bc
000000a0: adb1 a33e 61fa 093e 8905 e43d 58bc c13c
000000b0: 0384 743d 7d16 9a3e 1a57 ce3d 7487 2c3e
000000c0: 468f 50be 34cf 8c3e 3080 cfbd 9184 6abe
000000d0: da92 92bd 661b 9dbe 92c1 e7bd a1db 303e
000000e0: 67a1 6cbe efe4 9d3d 6187 073d 43de 8a3e
000000f0: 33aa 1cbe c208 3e3e d0a9 bebc 5e2d 823e
00000100: 0f4a 7abe b9f9 a53e ba82 2cbc e951 193e
00000110: 273e be3d 4ce4 49bd 4909 053e fe35 33bc
00000120: f573 303e 7591 12be 93da 283e 815f 7a3e
00000130: 6e99 b5bd 990a 8ebc 6faf a33e fdd4 8b3c
00000140: af63 b0be 6f86 0ebe c5b8 563e 64f5 813d
00000150: 7192 713d cce6 f13d 0070 4ebe 2539 75be
00000160: e8bd 6e3e c411 84bb 32ff 79be 1b1b e2bc
00000170: c32e 703e c38d f1bd 8788 b13d 9935 b4bd
00000180: efa5 0cbe 15ca e6bc 15cf 093d 3a20 8cbe
00000190: 102d 7abe 5f7e acbe 9fe4 67be 92a2 60be
000001a0: 56b0 abbe de38 713e e46d 0f3e 789e 41be
000001b0: 0152 8ebc b4fe 83be 0501 fd3d d4d6 243e
000001c0: 11c0 99be 2420 753e f42f 0dbd 47c7 833e
000001d0: 0cc0 113e cb73 09be 82b8 a33e 7ed5 a0be
000001e0: 5ac3 35bd f651 8abe a59b 8bbe 1180 d13c
000001f0: 5ccf 6b3e 7617 71bd 1089 a0be 8974 7bbe
00000200: 4b2a 6abe b8c0 f93d 9c37 493e 4f22 54be
00000210: 2c9c 8ebe 57fa ab3c b77e 533e 89b3 033e
00000220: 343d 04be a722 013e f2a6 40bd 7335 86be
00000230: 379b 3bbe 8f63 483c 9e2a eb3d 68be 4e3e
00000240: fe93 1dbe 3852 673e 45e6 9f3e a454 593e
00000250: b97f 87be 6cb8 76be d213 163e 216d 95bd
00000260: d375 e5bc ac3c 3d3d 63fe 513e 5cde 993e
00000270: 85bd 363d 57b7 a63d 4910 b3bd add8 4c3e
00000280: b940 35bd c4b7 6d3e ac34 913e 28d6 25bd
00000290: f9e2 d13c aadc 5c3e 8c79 13be 141a 3fbe
000002a0: 9186 a7bd b404 953e 9571 95be 2af8 483e
000002b0: bdcf 9ebe c006 a0be 411d 633e 3e53 3bbe
000002c0: 175c 80be a3e4 a83e f641 2c3d 4fc0 e83d
000002d0: cf73 64be 8f64 2d3c 4996 3ebe d66d 9a3e
000002e0: ae97 d33d 9e65 d8bd 175f 85bc 847a 87be
000002f0: 6047 91be 09e7 1dbe b1ea 033b e95c ec3d
00000300: 5c57 51be 500b 6f3e f002 7abe 10dc 583d
00000310: c759 d0bd c4b2 9abe 45c5 8d3d 3735 e63c
00000320: 7b68 f7bd cb7e 21be 6916 a9be bad9 9fbe
00000330: 0d91 29be eedf 89be 2b6a 973e 5fb4 8fbc
00000340: aaf5 673e 5609 9ebe 835e bd3d 5598 623e
00000350: 4103 70be 4a4b 5bbe 3f39 50bb b811 5d3e
00000360: d191 ad3d 5201 9d3d 3df2 453e 85e0 e7bd
00000370: 16ae a83d fcc9 ee3d 9957 f83d cb47 93be
00000380: cfa6 b6bd aec1 27bd 48d9 86be 9951 d73d
00000390: 8940 043e 05ba 19be 75c9 9bbe ba00 99be
000003a0: 1ef9 103e 855f a8be c1b2 84be 08b3 813e
000003b0: 5d50 94be 5924 8c3e a4d0 8d3d 51bb 03be
000003c0: 29bf 9e3e 24c7 013e a0d9 8cbe 3a09 37bd
000003d0: 3a93 e93d fdef 8e3d ba96 583e 6530 1ebe
000003e0: 5061 213e 8635 233e b9c1 86be 9907 8b3e
000003f0: f53d 08be ad12 5ebe 29c8 f6bd 1ce4 053e
0.21094283 0.11728431 0.0009259335 -0.12585951 0.1318191 0.26006448 0.30251104 0.058657903
-0.038015578 -0.059106562 0.28200474 -0.032888886 -0.0522818 0.17389338 -0.0096705835 0.26620936
-0.14095831 -0.35246694 0.25164557 -0.32153627 0.08938208 0.02109455 0.12451224 -0.19675957
0.033238072 -0.30559477 0.30238554 0.29452097 0.16621158 0.018172303 0.08135125 0.23244102
-0.2054924 -0.14553376 0.094923586 -0.24675311 0.27610722 0.13311598 -0.09542145 -0.027349103
0.31971493 0.13474418 0.11133868 0.02364938 0.05969621 0.30095282 0.10075207 0.16848546
-0.20367154 0.27501833 -0.10131872 -0.22902133 -0.07156916 -0.30684966 -0.113162175 0.17271282
-0.23108445 0.07709681 0.03308809 0.27122697 -0.15299301 0.18558028 -0.023274332 0.25425237
-0.24442314 0.32417086 -0.0105292145 0.14972652 0.09289198 -0.049289986 0.12991823 -0.010938166
0.17231734 -0.143133 0.1648963 0.24450494 -0.08867155 -0.017339038 0.31969783 0.017069334
-0.34451053 -0.1391847 0.20968921 0.06345633 0.058977548 0.11811599 -0.20159912 -0.2394758
0.23314631 -0.004030438 -0.24413756 -0.027600816 0.23455338 -0.11794617 0.08668619 -0.087992854
-0.13735174 -0.028172532 0.033644754 -0.27368337 -0.24431252 -0.33690163 -0.22645806 -0.21937016
-0.3353297 0.2355685 0.14006764 -0.18908107 -0.017373087 -0.2578026 0.1235371 0.16097575
-0.30029348 0.23938042 -0.03446956 0.25737974 0.14233416 -0.13423078 0.31976706 -0.31412882
-0.044375755 -0.27015656 -0.27267185 0.025573762 0.2302832 -0.058860265 -0.3135457 -0.24556173
-0.22867696 0.12194961 0.1965012 -0.20716213 -0.27853525 0.020993395 0.20653807 0.12861456
-0.12913972 0.12610875 -0.04703421 -0.26212654 -0.18320929 0.012230768 0.11482738 0.20189822
-0.15388486 0.22589958 0.3123037 0.21223694 -0.26464632 -0.24093789 0.14655998 -0.07296205
-0.028010285 0.04620044 0.20507197 0.3005246 0.044614334 0.08140438 -0.087433405 0.2000453
-0.044251177 0.23214632 0.28360498 -0.04048744 0.025620924 0.21568552 -0.14401835 -0.18662292
-0.081799634 0.2910515 -0.2918822 0.19625917 -0.31017867 -0.3125515 0.22179128 -0.18293473
-0.2507026 0.32986936 0.042055093 0.11364805 -0.22309802 0.010583057 -0.18612017 0.30161923
0.10331665 -0.10566257 -0.016280694 -0.2646066 -0.28374767 -0.15420164 0.00201289 0.11541159
-0.20443481 0.23344159 -0.24415183 0.052944243 -0.10173374 -0.30214512 0.06922392 0.028101547
-0.12080475 -0.15771024 -0.3302491 -0.312208 -0.16559239 -0.26928657 0.29573187 -0.017542062
0.22652307 -0.30866498 0.09246542 0.22128423 -0.23438741 -0.21415439 -0.0031772403 0.2158879
0.08475078 0.076662675 0.19330688 -0.113221206 0.08236329 0.11659619 0.12126083 -0.2876571
-0.08918535 -0.04095619 -0.26337647 0.105136104 0.12915243 -0.15012367 -0.30427137 -0.29883367
0.1415753 -0.32885376 -0.25917628 0.25331903 -0.28967562 0.2737148 0.06924561 -0.12864424
0.3100522 0.12673622 -0.27509785 -0.044686534 0.11405034 0.06979368 0.21151248 -0.15448149
0.15759778 0.15938386 -0.26319674 0.27154234 -0.13304885 -0.21686812 -0.12049896 0.13075298

ConvBnRelu1.bn1.weight f4 [32]
00000000: 1e25 793f b956 843f d3e7 823f b4bd 7e3f
00000010: 7b2f 793f 73cb 813f cf51 7b3f 0d81 7b3f
00000020: 1a5e 7c3f efee 7e3f 9d28 843f 593d 803f
00000030: 49fa 7b3f 9dca 813f c7c2 7d3f 5348 7e3f
00000040: 6e99 7d3f 9177 773f 8dc4 813f a866 843f
00000050: 2ce7 7d3f e86f 7f3f 007f 823f b0a7 823f
00000060: 3761 7b3f 7565 803f ca6e 823f 9c30 7d3f
00000070: 5cb1 823f 5f2e 793f 6279 823f 1ab9 813f
0.9732226 1.0338966 1.0226997 0.99508214 0.97338074 1.0140213 0.98171705 0.9824379
0.9858109 0.99583334 1.0324894 1.0018722 0.9842878 1.0139958 0.9912533 0.9932911
0.9906224 0.9666682 1.0138108 1.0343828 0.99180865 0.9978013 1.0195007 1.0207424
0.98195213 1.0030962 1.019006 0.989023 1.0210376 0.9733638 1.0193293 1.0134614

ConvBnRelu1.bn1.bias f4 [32]
00000000: 9923 89bc 959f ab3c a161 543d 8da4 703c
00000010: 10bf 4fbc bb83 643b ed64 273c 8199 023c
00000020: 6e1f 98ba 3022 4f3c d0e1 30bc fcf8 29bd
00000030: b1e4 b73a bc2a 1abd cda8 08bd c83f 5ebc
00000040: db80 b73a 3c07 b1bb 2c74 463d 4819 c03c
00000050: 384c fbbc 2a31 f9bc f8a5 28bd 9d01 b43c
00000060: 4985 363c 5ec9 21bd 7bd4 b23d 8cdd 5cbb
00000070: 4a0f b63c c086 01bc 7237 66ba eccb d1bc
-0.016740607 0.020950118 0.05185092 0.014687669 -0.01267983 0.0034868557 0.010216934 0.0079711685
-0.0011606046 0.012642428 -0.010796025 -0.041497216 0.0014029947 -0.03763841 -0.033364106 -0.013565011
0.0014000194 -0.0054024737 0.048450634 0.023449555 -0.030675992 -0.030418951 -0.041173905 0.021973426
0.011140176 -0.03949868 0.08731934 -0.0033701388 0.022224087 -0.007905662 -0.00087820657 -0.025609933

ConvBnRelu1.bn1.running_mean f4 [32]
00000000: 7403 3b3d a7bd debb 9481 663c 3b10 f23a
00000010: 8f6b 1f3d bfb2 65bc ef45 50bb 3f9a 0f3d
00000020: 86f7 ba3c ed5a febb 860c 8bbc ee43 8bbd
00000030: ca80 e23c 8323 eabc 9d40 42bd fb87 783c
00000040: bd93 8e3c cc66 643d 7022 4e3b 33a4 e83b
00000050: dfd8 3abd 65a6 1fbd d5ed fdbc 71b2 6fbc
00000060: 9854 513c f6ab 55bd e9c0 30bc 0db4 1a3d
00000070: 0384 ccbb 5096 2b3d d70f 98bc 66b5 81bc
0.04565759 -0.0067975107 0.01406898 0.0018467972 0.038920935 -0.014019667 -0.0031779965 0.03505921
0.022823106 -0.007762304 -0.016973745 -0.06800066 0.027649302 -0.028581386 -0.0474249 0.015169139
0.017404431 0.055762097 0.0031453632 0.007099652 -0.04561698 -0.038977046 -0.030997196 -0.014629946
0.012776516 -0.052165948 -0.010788181 0.037769366 -0.006241323 0.041891396 -0.01856224 -0.015833568

ConvBnRelu1.bn1.running_var f4 [32]
00000000: 6ebd 263f b3de b73d c567 2f3d 76ca 553e
00000010: 56b2 373f fe48 063e 4efb a73d 8004 a43e
00000020: c862 583e c4d6 723d b190 ff3d c1ab e03f
00000030: e5d0 0d3e 6893 8f3e 3d42 e53e 0caa 223d
00000040: 7ec1 653d cb97 373f a083 fe3d 1222 9b3e
00000050: ac0e c93e 2471 963e b764 513f b4eb 523d
00000060: 6393 893d 22e7 4e3f e673 493e afd8 663e
00000070: cbf0 8d3d 6884 643f 816e 943e c6c7 a83d
0.65132797 0.089780234 0.04282357 0.20878014 0.71756494 0.13113782 0.082022294 0.32034683
0.21131432 0.059286848 0.124787696 1.7552415 0.13849218 0.2804215 0.44777098 0.03971295
0.05609273 0.7171599 0.12427449 0.3029943 0.39269006 0.29383194 0.81794304 0.051494315
0.06717565 0.8082143 0.19673118 0.22543596 0.06930693 0.89264536 0.28990558 0.08241229

ConvBnRelu2.conv1.weight f4 [64, 32, 3, 3]
00000000: 372e 193d 2081 62bd 1eab febc 4d83 f23c
00000010: 40b7 5b3d 00a0 51bd 172a 393d a610 beba
00000020: b7e7 b5bc d50b f9bc dbe6 c13c 29a0 b1bc
00000030: 111f 17bd ce9d 393d 88a0 61bd e5e8 0f3d
00000040: fa35 5b3d 9650 d9bc f1ad 19bc 95c9 8dbc
00000050: ea2a b33c c641 c6bc 7139 82bd e9dd 38bd
00000060: 3346 82bd 5a4c 11bd ea4f 94bd f606 94bc
00000070: 8f3f 453d 833c e9bc 1dfd 193c 3a03 043c
00000080: 7798 54bd c373 8d3c 0c31 2bbc 0cb2 47bc
00000090: fe22 1ebd be4c 33bd dda8 0d3c 580a cb3c
000000a0: eb68 4abd c425 d3b9 601c 5bbb 5f69 433d
000000b0: 4fd7 5a3d 1eb4 3dbc 8a81 b8bc 65e2 bc3c
000000c0: e34f 5ebd 069e 83bc 26db 48bc ba58 c6bc
000000d0: a203 133d 63de a63b 1ffa 8a3c 27e8 7ebc
000000e0: 9986 2a3d 41c6 8c3b acbe b33c da15 b6bc
000000f0: ed9e 7d3c 89c9 5b3d 5fa8 2fbd 3cc2 f7bc
00000100: e312 38bd 5a7e 133d 3b71 4a3d 125b cfba
00000110: 129a 33bd 00e9 f7bc 383d ce3c 9dfc e2bc
00000120: 559c 943b 907b 5dbc 9012 52bd af31 42bd
00000130: 55af fb3b 7d34 933c 9c5f 293d c69c 0d3b
00000140: 2bbc 75bb 417d c2bc c753 5cbc 60a5 273d
00000150: a96a 733d d589 0f3d aaac 73bd c266 d23c
00000160: b038 3fbd d001 473d c7e1 a93c be09 403d
00000170: 447e 08bd 868b 05bd 71c5 6ebc ef5a b2bd
00000180: 8fb1 673c 3ed7 a0bc 5d8e 86bb 38ef 613c
00000190: 059d e6bc ed80 883c 4426 473c 0a9c 1f3d
000001a0: f0a8 fbbc dd79 85bd 6b78 0fbc c4ff 74bd
000001b0: a2f0 3abd 5ca9 57bc 7403 66bd 099e febc
000001c0: 316a 0fbd 5c64 d0bc 1ec8 81bd 6ff4 173c
000001d0: 48a1 2f3d 5bc0 c03c f746 dbbb 8e4a 803d
000001e0: f935 20bd e4bd 413d 0cc1 2f3d 25b5 67bd
000001f0: 352d 003c 3f79 cabc 9c4e af3c 593d 14bd
00000200: 3fd6 28bd 758f 9e3c 1ece fdbc f2f9 19bc
00000210: 884d b63c e062 c63c 9b6b bbbc 2bb7 45bb
00000220: e852 08bd 8062 fd3b 3b52 743d 916a 243c
00000230: 3347 7d3d bfc3 9cb9 28d3 adbc 67c7 26bc
00000240: 76a4 df3b 721c fa3b 8ceb 11bd d686 673c
00000250: 2ffe 2ebd bac9 763a a8de a33c a272 a33c
00000260: 54c0 84bc 23bf e83c 14a5 0b3d 9d9c 5c3c
00000270: 7943 693c c002 623d 6561 88bc 4e07 343d
00000280: ed8c 2ebd 858a 353c f8fb d3bb 082b 26bd
00000290: 8d21 273d 1269 5fbd 4ce7 d0bc 74a8 5ebc
000002a0: 88fb 36bd ae6e 873c 23aa 623b f9ac 31bd
000002b0: ecc8 233d 958e 7abc 1efa e8bc 0bbc 8bbd
000002c0: 04a3 48bc 37da 2e3d 6974 173c f853 66bc
000002d0: 7e2e 093d 532f 82bd 5f10 c33b aa96 76bd
000002e0: 1a5e 12bd dea8 a4bc 9edd 65bd 7242 1cbd
000002f0: c090 413d 0f2b 7ebd 9f1b bd3c 2605 283c
00000300: 4d90 04bd f9c2 223d 5701 10bd 5489 1b3d
00000310: 4748 f3bc 8b0e b73c 4414 2e3d 8c9a 97bc
00000320: 6f42 e63b 1628 dc3c 8e7d f43b f6e8 6bbd
00000330: 2ae1 103d fd1f 56bd 5bf0 f83c 2c9a 3dbd
00000340: 8a28 0c3d f708 ecbc a8af 06bd d49a 5bbd
00000350: fc57 1b3c 88ad ebbc 6ff4 99bc 9b86 83bd
00000360: d67a ecbc 4362 12bd 1fee 0f3c 3898 12bd
00000370: 783a 933c 94df 42bc 634e 47bd 7fba 22bc
00000380: e5a7 be3c 14d5 783b f6ce 4ebd 572d 9cbc
00000390: b425 44bd 5f02 f03c 0132 613c 0054 fa3c
000003a0: e401 97bc 2089 423d 2791 803c d622 7e3c
000003b0: 156e 893d 7d9a a03b f489 393d 1a80 f83c
000003c0: 0ffb 813d 5124 783c a08d c7bb 6396 5bbd
000003d0: 6e4a b3bb 080f 1dbc c010 1f3d 56f1 0dbc
000003e0: 62c6 62bd 58cc b23c 2269 313d 112f 24bb
000003f0: 607f 743d b74c 43bd 5ed7 8dbd 5db8 58bd
0.03739759 -0.055298924 -0.031087454 0.029603625 0.053641558 -0.05117798 0.045206156 -0.0014500811
-0.022205217 -0.03040115 0.02366965 -0.021682816 -0.03689486 0.04531651 -0.055084735 0.035134215
0.053518273 -0.026527684 -0.00937985 -0.017308036 0.021871049 -0.024201285 -0.06358612 -0.045133505
-0.06361046 -0.035473205 -0.07241805 -0.018069725 0.048156317 -0.028471237 0.009398726 0.00805741
-0.051903214 0.017267114 -0.010448705 -0.012188446 -0.03860759 -0.04377436 0.008646217 0.024785206
-0.049416464 -0.00040273194 -0.003343366 0.04770791 0.05342799 -0.011578588 -0.022522707 0.023057172
-0.054275405 -0.016066562 -0.01225928 -0.02421223 0.035892136 0.0050924285 0.01696497 -0.015558279
0.04163227 0.0042960946 0.021941505 -0.022227217 0.015479785 0.053658996 -0.04288518 -0.030243985
-0.044939887 0.03600917 0.04942439 -0.0015819988 -0.043848105 -0.03026247 0.025175676 -0.027708346
0.004535238 -0.013518229 -0.051287234 -0.047410663 0.0076808133 0.017969364 0.041350946 0.0021608337
-0.003749619 -0.023741366 -0.013447708 0.0409292 0.05942789 0.035043556 -0.059490837 0.025683764
-0.04668492 0.048585713 0.020737542 0.04688429 -0.03332354 -0.032603763 -0.014573441 -0.087087505
0.014141454 -0.019633885 -0.0041063265 0.013789944 -0.028151045 0.01666304 0.012155119 0.03896717
-0.030720204 -0.06517384 -0.008756737 -0.05981423 -0.04563964 -0.013162937 -0.056155637 -0.031081216
-0.03501338 -0.02543848 -0.063369974 0.009274586 0.04287842 0.023529222 -0.0066918093 0.0626422
-0.039113972 0.047300234 0.042908713 -0.056569237 0.007823278 -0.024716018 0.021399789 -0.03619132
-0.041219946 0.019355515 -0.030982073 -0.0093979705 0.022253767 0.02421707 -0.022878459 -0.003016899
-0.03328219 0.0077326894 0.059648734 0.010035173 0.06183548 -0.0002990048 -0.021218851 -0.010179377
0.006825025 0.0076327855 -0.035625026 0.0141312685 -0.042722877 0.0009414215 0.020003632 0.019952122
-0.01620499 0.028411454 0.034092978 0.013465074 0.014237278 0.055178404 -0.016648004 0.04395228
-0.042614866 0.011080389 -0.006469246 -0.04056838 0.04080348 -0.054543562 -0.025500916 -0.013589967
-0.044673473 0.016532268 0.0034586273 -0.04337785 0.039986536 -0.015292783 -0.028439578 -0.06822976
-0.012245897 0.042688575 0.009244063 -0.014058106 0.033491604 -0.06356683 0.0059528793 -0.06020228
-0.035734273 -0.020100053 -0.056119554 -0.038149305 0.047257185 -0.062052783 0.02308446 0.010255134
-0.03236418 0.03973672 -0.035157528 0.037972763 -0.02969755 0.022345802 0.042499796 -0.01850631
0.0070269625 0.026874583 0.0074612563 -0.057595216 0.035370983 -0.0522766 0.030388048 -0.046289608
0.03421835 -0.028812869 -0.032882363 -0.053614452 0.009481426 -0.02876927 -0.018793313 -0.06422158
-0.028867166 -0.03573824 0.0087848 -0.0357897 0.017972216 -0.0118941255 -0.04865874 -0.009932159
0.023273418 0.0037968801 -0.050490342 -0.019064588 -0.04788752 0.029298006 0.013744832 0.030557632
-0.018433519 0.047494054 0.015694214 0.015511235 0.067104496 0.004901229 0.045297578 0.030334521
0.06346714 0.015145377 -0.006089881 -0.053610217 -0.005471519 -0.009586103 0.038834333 -0.008663496
-0.055364974 0.021825954 0.043313153 -0.0025052468 0.059691787 -0.047680583 -0.06925844 -0.052910198

ConvBnRelu2.bn1.weight f4 [64]
00000000: 561c 803f 7909 803f 8dc5 7b3f fa0c 813f
00000010: 2784 7c3f f930 7d3f 9d4d 823f 67ee 7e3f
00000020: 8688 7d3f 816e 7a3f a0fc 773f 57d3 7b3f
00000030: 9213 833f ef4b 7b3f 21d2 7b3f c6b8 7e3f
00000040: 2fd3 7c3f 1cf7 803f 5df2 813f 6a93 803f
00000050: ea50 7f3f d982 7e3f 9b18 803f 5070 803f
00000060: 4dcb 803f 404f 803f 0d49 793f 1550 823f
00000070: e056 823f 6121 7b3f 487c 813f 8b15 833f
00000080: ffc0 813f ea90 803f c0b8 823f fb2a 813f
00000090: 54f5 773f 1dd6 783f 236d 7b3f 365a 803f
000000a0: 1a27 813f 4873 813f 653e 7e3f b000 7f3f
000000b0: 20c4 7f3f c7cf 7d3f 58ba 823f 665a 7f3f
000000c0: 8ffb 813f 4f48 813f 9a0d 7f3f b630 853f
000000d0: d692 7e3f 81ba 803f f039 803f c917 843f
000000e0: 65c6 813f 90b2 7a3f 827a 7f3f 5df3 753f
000000f0: 49a9 803f fb6b 7b3f f41f 813f cebe 803f
1.0008647 1.0002891 0.98348314 1.0082085 0.9863915 0.9890285 1.0179936 0.99582523
0.99036443 0.97824866 0.9686985 0.98369354 1.0240347 0.9816274 0.98367506 0.9950069
0.9875974 1.0075412 1.0152088 1.0044987 0.9973284 0.9941841 1.0007509 1.0034275
1.0062042 1.0024185 0.9737709 1.0180689 1.0182762 0.9809781 1.0116053 1.0240949
1.0137023 1.0044224 1.0212631 1.0091242 0.96858716 0.9720171 0.98213404 1.002753
1.0090058 1.0113306 0.99313956 0.99610424 0.9990864 0.9914517 1.0213118 0.9974731
1.0154895 1.0100192 0.9963013 1.040549 0.99442804 1.0056916 1.0017681 1.0319759
1.013867 0.97928715 0.9979631 0.9607447 1.0051662 0.9821164 1.0087876 1.0058229

ConvBnRelu2.bn1.bias f4 [64]
00000000: 8da4 ccbc 6e3e debc 56be 1dbd d6c4 4fbc
00000010: 5f14 a2bc 0290 79bc 038a ac3a 01fe f03b
00000020: 7e25 a9bc ba24 23bd 96a9 e3bc cd72 79bc
00000030: 26ad 4a3c b3c4 94bc 7f32 11bd faea a2bc
00000040: 506a 96bc 9992 4fbc f31e c93b 21ee 99bc
00000050: 980a 58bc 2849 3ebc 79de f1bc 417f 0abd
00000060: 408f 79bb 86e4 363c 3898 d1bc 7966 293c
00000070: 757e c3bc e0c9 c9bc f214 a3bc 61ec e23b
00000080: 61d5 f1bc af5b adbb 0ee1 1b3b 8dac 313c
00000090: d1f8 8dbc 568e f5bc c7cb 1ebc 1985 a8bc
000000a0: 2c5a 7c3c 26e9 a2bb 63e1 e9bc 6707 9a3b
000000b0: 5480 a0bc e4c7 4abc 1921 48bc 6991 5cbb
000000c0: fe8a a3b9 5979 933b 6bd7 1fbc 53a9 d23b
000000d0: e7de 88bc 7231 1ebc eb55 abbc 9b32 47bb
000000e0: a74f d0bb e28c 07bd 3728 8f39 a1b9 ecbc
000000f0: 9fd1 27bc 21df 02bd ca9d e63a 3982 bdbb
-0.024980808 -0.027129378 -0.038511597 -0.012681207 -0.019785104 -0.015232088 0.0013163689 0.0073544984
-0.02064776 -0.039829947 -0.027790826 -0.015225125 0.012370383 -0.0181602 -0.035448547 -0.019887436
-0.01836124 -0.012669229 0.0061377226 -0.018790307 -0.0131861195 -0.0116141215 -0.029525029 -0.033812765
-0.0038079768 0.011162883 -0.025585279 0.010339373 -0.02386401 -0.024632394 -0.019907448 0.006925151
-0.029520692 -0.0052904706 0.0023785266 0.010844362 -0.017330559 -0.029975098 -0.009692139 -0.020571278
0.015402358 -0.004971641 -0.028549856 0.0047005895 -0.019592442 -0.012376759 -0.012214922 -0.0033656007
-0.0003119334 0.0045005498 -0.0097559495 0.0064288764 -0.01670785 -0.009655343 -0.020914992 -0.0030395153
-0.0063571515 -0.03309334 0.00027305048 -0.028897109 -0.010242849 -0.031951074 0.0017594632 -0.005783346

ConvBnRelu2.bn1.running_mean f4 [64]
00000000: 02be 17bf f6b4 2a3e 7d14 5b3a 4aae b93c
00000010: f131 bf3d bcfa d83d 6a81 02bf 7d5b e93d
00000020: e749 d2be 6628 8b3d 0dff 94be 0781 55be
00000030: 4589 b93c a026 5cbf 34d2 63be 8485 b9be
00000040: 979c 3fbc f237 bdbe 4e29 753d fff0 d6be
00000050: 6bb7 24be e143 a33d 359a 9ebe 9e6d 133d
00000060: 2e34 06be 58c4 acbe 7189 90be 2d72 5fbd
00000070: d118 babe f8a4 f3be 91b0 e83e 1b27 11be
00000080: 2dc1 803f b9c7 303e 4dc2 acbd 5dce adbc
00000090: 34d0 edbe 4b1a 86be 78f1 d6bd be3a 863e
000000a0: fd26 b8bd ac92 6abd 3ca3 383d 4742 743e
000000b0: 0a45 c9bd 66cc 3bbe 8ec7 39bf db66 fcbd
000000c0: af73 8dbe 6a3d 49be f7bd 93be 5f60 52bd
000000d0: 3904 b5be 4a6e 13bf 0368 ab3e 72c9 583c
000000e0: ffdc 1dbf 91d5 b0bd b047 b9bd 4ca5 463d
000000f0: d99e 28bf 05b2 b5bc 8dfb 223d 7927 133d
-0.59274304 0.16670594 0.000835724 0.022666115 0.093356974 0.10594699 -0.5097872 0.11394403
-0.41072008 0.06794815 -0.29100838 -0.20850001 0.022648463 -0.8599644 -0.22248155 -0.36234677
-0.011695049 -0.36956745 0.059853844 -0.4198074 -0.16085593 0.07971931 -0.30977026 0.03599321
-0.13105842 -0.33743548 -0.2822986 -0.054552246 -0.36347058 -0.475868 0.4544721 -0.14175074
1.0058953 0.17263688 -0.084354974 -0.021216566 -0.4644791 -0.26191935 -0.10495275 0.26216692
-0.089918114 -0.057268783 0.045077547 0.23853408 -0.09827621 -0.1833969 -0.7257012 -0.123243056
-0.27627322 -0.19652334 -0.2885587 -0.051361438 -0.35354784 -0.5759016 0.33477792 0.013231622
-0.6166534 -0.086344846 -0.090468764 0.048497483 -0.6586738 -0.022179613 0.03979068 0.035926316

ConvBnRelu2.bn1.running_var f4 [64]
00000000: 660d 033e db40 af3d 2522 923e 5983 4c3e
00000010: ea8a 303e 22c2 133e 0a0b 093e c131 073e
00000020: 2d8c c83d 084d ff3d 9bd7 963e 6d0d 0c3e
00000030: e5c6 a03d 8d40 ec3d 52ca f13d d01c dc3d
00000040: 967a e83d 90a2 c13d a0ab dc3d 01fb da3d
00000050: 4612 003e 4b5a d73d 4854 283e e733 e63d
00000060: bfeb 6f3d e640 953e a68d a73d dbf6 b23d
00000070: 47b9 a53d 3a9d 9b3e b1f6 e23d b8d8 903d
00000080: 324a 433e 802a 123e 0eda 913e 776b 683d
00000090: 0d33 023e 97bc 1a3f 6008 d43d 1539 ad3d
000000a0: ab59 893d a301 e73d dc63 663e 65c8 8c3e
000000b0: d825 813d 9b96 003e 9ef0 0a3e 03e3 333e
000000c0: ba28 a73d 6fb7 bf3d 01ad b33d ca29 5c3d
000000d0: 7cad 0c3e b148 043e efa7 b83d 0297 ac3d
000000e0: 8122 dd3d 03db 793e dad9 a23d 1223 713f
000000f0: 2971 343e f853 403e d83b 6a3d da31 dc3d
0.1279808 0.08557292 0.28541675 0.1997198 0.17240492 0.14429525 0.13383117 0.13202573
0.097923614 0.124658644 0.2946137 0.13676997 0.07850436 0.115357496 0.11806168 0.10747683
0.113515064 0.094548345 0.10774922 0.106924064 0.12506971 0.10515269 0.16438401 0.11240368
0.058574434 0.29151076 0.08181314 0.0873849 0.080919795 0.30393392 0.11082209 0.07072586
0.19071272 0.14274025 0.28486675 0.05674311 0.12714787 0.60444015 0.1035316 0.08458153
0.06706556 0.11279609 0.22499031 0.2749664 0.06306046 0.12557451 0.1356835 0.17567067
0.08162065 0.09361159 0.08773232 0.05375079 0.13738054 0.12918355 0.09016406 0.0842724
0.10797597 0.24399953 0.07951708 0.9419414 0.17621292 0.18782032 0.057185978 0.10751696

ConvBnRelu3.conv1.weight f4 [128, 64, 3, 3]
00000000: ae6a 8e3a c28a 8f3b 4188 ecbc b073 b5bc
00000010: dece 723c cbab 7b3c 1e04 843c fe5c b73c
00000020: 7743 d1bb 3e15 8fbc 7217 f83c 982c d13c
00000030: 8744 4c3c 71fc 303c 12db 3b3c 8c13 8e3a
00000040: 1567 963c e6bf e63a b440 313c 4337 df3c
00000050: 4340 153d 42a0 03bc 2b54 71bc 6290 713c
00000060: a35b 833c 9edc dfbb e0d3 563c 9fb8 c0bb
00000070: a964 04bc f5b2 a73c 5b69 d43b 8ad8 0839
00000080: 128f 36bb 6b5b 23bd 9f10 98bc efaf b13c
00000090: 261c 0dbc a656 113d 794e 723c 21d7 cfbc
000000a0: dd72 cfbc c8d5 a33c ee83 a93c 42c3 8fbc
000000b0: 63c5 d9bc c7b0 9ebc 4fef 033d 363c 28bd
000000c0: 4bef e2bc 1262 bbbc ba7a 903c ccaf 8abc
000000d0: dc58 dc3b bda1 0cbd e9b1 3f3c dbce cdbc
000000e0: 892e b0bc e616 393d faf4 42bd 2807 c03c
000000f0: 9bfa b0bc 9d5e dd3c 1540 c4bc a726 9b3c
00000100: f066 f8bc 78d3 ab3c 12fb 1e3d 067e 19bd
00000110: fde2 2abc 49b9 1fbd b102 243d 92fe 1e3c
00000120: 92e0 923c 3f71 733c b238 893c 60a5 f2bc
00000130: b7c9 f4bc 5715 babc 1997 efbc b496 543c
00000140: 5e97 acbc 4e8f f83c 00b4 0b3d ae05 033d
00000150: 17b9 72bb a688 033c bc4f e43c d125 afbc
00000160: 5286 e33c 3ab3 c2bc a4a3 28bc cdb0 4d3c
00000170: 713d 6d3c 85dc bb3c cc8d 253d 5e72 283d
00000180: 4f64 afbc 1e4d 8c3c 07ed cc3b 5e9a 2e3c
00000190: 0686 3a3d 15b6 ab3c a81c 303b 01af 88bb
000001a0: 7417 063d 5051 d4bc ee01 0c3d ab6f e6bc
000001b0: dab6 d23c d535 5ebc 6325 573c c167 d4bc
000001c0: 678a 0a3b ac69 18bc d0bb 56ba 7aa8 8a3c
000001d0: a7da 35bd d2bb 8bbc b95c d83b a295 b43c
000001e0: c9ee 203d 9fb4 58bc 54ff bfbc 36b4 ecbc
000001f0: 0ce1 02bc 15f2 9d3c 4d4c a4bc e502 24bd
00000200: 64fe b63c feae be3b 65e6 c03c 6336 d9bc
00000210: 999d e03c 871b f03b 02ab 83bc 14e1 fd3c
00000220: e4df 53bb bf9a 86bc 57e9 5bbc fdab 083d
00000230: b86d 56bc 5e82 303d 15c5 8ab9 77f9 c83c
00000240: 1358 d43c 6c27 e2bc 82f3 f53c 8f93 b93c
00000250: aa63 b73c fc29 abbb d950 2e3c c894 82bc
00000260: c4ae e3bc 5fee 9ebb f67c a23c a2e2 bb3c
00000270: 7b2c 02bd e725 98bc 191f d1bb e787 253d
00000280: 413e 113d 4075 023d d534 d0bc 8915 45bc
00000290: 5529 20bc 1e38 943b c2f2 7cbd 981f 173c
000002a0: cef6 5bba d857 a23b 3818 4e3a eaf5 0dbd
000002b0: fe97 fd3c af5d 0ebc b7d4 283d c21e fabc
000002c0: 9d25 32bc 29e5 1c3d 8954 be3c 5a8e 423d
000002d0: a1d7 2abd b4aa 26bd bbd4 f7bc 3a89 89bb
000002e0: 435c 46bd 8f84 07bd c286 d0bc 0204 1bbd
000002f0: 0a7a 03bb cf9d 11bd ff6e d639 34bf bdbc
00000300: 973d fc3c cd75 f13c 3100 c9bb cb9b bcbc
00000310: ed0e 72bc c5b9 d23c 6432 c63c 19ee 0a3c
00000320: 7f13 623c e3d1 c9bc ab97 b5bb 75a9 373d
00000330: 86f6 9a3c 0226 53bc da07 473c a5af 3cbb
00000340: d38c 193d 8b74 dd3c 7985 b3bb e3de 4ebc
00000350: 0579 aebc 1547 ab3b 1c44 70bc ff87 d4bc
00000360: bb89 cd3c 5ded 183d a60a 003d e24f a6bb
00000370: 2165 0fbd 0a9d 343d 2a60 383d b7dd ebba
00000380: f828 973c 156c 09bd b9bf c5bc ccfb 9d3c
00000390: 5bb2 e1bc c123 4d3c a365 a33b d14b d83c
000003a0: bc7e 2fbd 04af 553c 6b7b 30bb bae3 18bd
000003b0: d3c3 213c 7a59 abbc 85fd 4bbd 1ca4 a93a
000003c0: f352 153d 0f9f a0bc 5cce 583c 2503 03bc
000003d0: 6ca5 07bd 2fff 28bd 9246 e3bb c4a6 d8bc
000003e0: c9a7 16bd 1448 8a3c 2a1e bcbc 8be6 b8bc
000003f0: ce6f 1cbc 58b8 14bd f7f2 da3c 1099 8cbb
0.0010865533 0.004380555 -0.028873565 -0.02214989 0.014819829 0.015360783 0.016115244 0.02238321
-0.0063862163 -0.017466184 0.030284617 0.02553396 0.01246751 0.010802374 0.011465805 0.0010839566
0.0183597 0.0017604798 0.010818649 0.02724803 0.036438238 -0.008033814 -0.01472954 0.014743896
0.016034907 -0.0068317195 0.013112038 -0.0058813835 -0.00808064 0.020471076 0.006482286 0.00013050638
-0.0027856273 -0.039882105 -0.018562613 0.021690337 -0.008612668 0.035483025 0.014789217 -0.025371136
-0.025323326 0.0199994 0.020692792 -0.01754916 -0.02658338 -0.019371403 0.032210644 -0.041073047
-0.027701994 -0.022873912 0.017636646 -0.01692953 0.00672446 -0.034333933 0.011700132 -0.02512305
-0.021506565 0.045187853 -0.04759691 0.023440912 -0.021603873 0.027022654 -0.023956338 0.01893933
-0.030322522 0.02097486 0.038813658 -0.0374737 -0.010430095 -0.03899506 0.04004163 0.009704249
0.01792935 0.014858543 0.016750667 -0.029619873 -0.029881341 -0.022715254 -0.029246854 0.012975384
-0.021068271 0.03034177 0.03410721 0.03198784 -0.0037036592 0.008028185 0.027870052 -0.021380337
0.02777401 -0.023767103 -0.010292921 0.01255436 0.014479981 0.0229323 0.04041843 0.041124694
-0.021410136 0.017126616 0.006253842 0.010656921 0.04553797 0.020960847 0.002687255 -0.0041712527
0.03273721 -0.02591768 0.034181528 -0.02812942 0.025721956 -0.013562639 0.013131472 -0.02592838
0.0021139623 -0.009302538 -0.00081914384 0.016926039 -0.044397976 -0.017057333 0.0066028503 0.022044007
0.039290223 -0.013226657 -0.02343718 -0.028894525 -0.007988226 0.019280473 -0.020055914 -0.040041823
0.0223381 0.0058192005 0.02354736 -0.026515191 0.027418898 0.0073275003 -0.016072754 0.030991115
-0.0032329494 -0.01643121 -0.013422332 0.033367146 -0.013087682 0.043093078 -0.0002646825 0.024533017
0.025920903 -0.027606688 0.03002334 0.02265337 0.02238639 -0.005223511 0.010639393 -0.015940085
-0.027793296 -0.0048501934 0.019834977 0.022935215 -0.0317807 -0.01857276 -0.006381881 0.04041281
0.03545976 0.0318501 -0.025415817 -0.01202906 -0.009775479 0.0045232913 -0.06175495 0.009223841
-0.0008390964 0.0049543194 0.0007861885 -0.03465835 0.030956265 -0.008689328 0.041218486 -0.030532245
-0.0108732255 0.03830448 0.023233669 0.04749904 -0.041709546 -0.04069014 -0.030252805 -0.004197267
-0.04842783 -0.033085402 -0.025454883 -0.03784562 -0.0020061755 -0.03555089 0.0004089996 -0.023162462
0.030791087 0.029475117 -0.006134056 -0.023023507 -0.014774066 0.025723347 0.02419395 0.0084796185
0.013798594 -0.024636215 -0.005541762 0.04483934 0.01891638 -0.01288748 0.012147868 -0.0028791216
0.037487816 0.027033111 -0.0054785577 -0.0126263825 -0.021297941 0.0052269795 -0.014664676 -0.025943754
0.025090089 0.037335742 0.031260155 -0.0050754407 -0.035008553 0.044095077 0.045013584 -0.0017995153
0.018452153 -0.03355034 -0.024139272 0.019285105 -0.027550867 0.012520731 0.0049864813 0.02640334
-0.042845473 0.013042215 -0.0026929032 -0.037326552 0.009873348 -0.02091669 -0.049802322 0.0012942585
0.03645606 -0.019607095 0.013232794 -0.007996355 -0.033116743 -0.041258987 -0.006935903 -0.026446708
-0.036781106 0.016880073 -0.022963602 -0.022570869 -0.009548141 -0.036308616 0.026727183 -0.0042907074

ConvBnRelu3.bn1.weight f4 [128]
00000000: 3bd0 833f fb7d 7f3f 46c8 843f a4e1 813f
00000010: e34f 803f 2860 823f 4f2f 813f a89c 823f
00000020: 2216 823f b791 813f cdf0 833f c44b 833f
00000030: b4ea 833f 07b6 823f 51a0 823f 1670 853f
00000040: d1f8 813f 7014 823f b704 833f 1762 823f
00000050: 4a19 833f e5b4 7f3f 5f80 823f c9c0 803f
00000060: 9123 843f 06e8 833f 4453 813f 0b1d 843f
00000070: f70c 823f 476a 823f d086 813f 22de 813f
00000080: 7bd2 803f 7441 803f 861e 853f 4a98 803f
00000090: 78f4 833f fe56 803f 5b89 813f d3ae 833f
000000a0: 41f4 803f 3409 803f 15a6 833f 6d1b 803f
000000b0: 6177 823f 1e7a 823f 8161 803f 9fde 7c3f
000000c0: eb7e 853f ab85 813f 4937 813f 8c54 803f
000000d0: c2b7 823f 0720 823f aa91 853f bb95 823f
000000e0: 9d68 813f 4ac4 843f e18d 7d3f d2bc 813f
000000f0: 5c1b 853f b5e1 7f3f e179 813f 3a70 843f
00000100: 35c0 813f e0f3 813f e984 813f ab6e 7f3f
00000110: 5736 823f 02d9 823f 6d07 833f 68cb 843f
00000120: 5444 823f 40ca 813f 47b0 833f 5b8c 813f
00000130: f85b 813f 0830 813f 5c39 833f 771c 833f
00000140: e9b1 803f e539 833f a286 803f daff 813f
00000150: 305d 823f c050 823f fe33 823f 0833 833f
00000160: 4844 813f 9e5c 813f fb7b 823f ac75 813f
00000170: 36e0 813f 327e 833f 4e83 833f f6c0 803f
00000180: 7716 813f 3c39 823f 7f51 833f 539d 823f
00000190: db18 823f 79b3 813f 1953 843f 6670 803f
000001a0: 55cc 813f 5926 833f aafa 823f d100 813f
000001b0: 9966 813f 62fc 803f 56a6 803f 9d0c 813f
000001c0: 917a 833f ac22 823f 78c6 833f bd70 823f
000001d0: c577 813f 1d7b 833f e804 823f 5785 843f
000001e0: 7f55 823f a4f8 843f b907 823f 624b 823f
000001f0: 47c1 823f 9790 833f 7c02 803f f61a 823f
1.0297922 0.99801606 1.0373619 1.0146985 1.002438 1.0185595 1.0092562 1.0204058
1.0163004 1.0122594 1.0307862 1.0257497 1.0306001 1.02118 1.0205175 1.0424831
1.0154058 1.0162487 1.0235814 1.0186185 1.0242093 0.998854 1.0195426 1.0058833
1.0323354 1.0305183 1.0103536 1.0321363 1.0160207 1.0188683 1.0119267 1.0145915
1.0064234 1.0019975 1.039994 1.0046475 1.0308981 1.0026548 1.0120043 1.0287727
1.007454 1.0002809 1.0285059 1.000837 1.0192682 1.0193517 1.0029756 0.9877719
1.0429357 1.0118917 1.0094997 1.0025802 1.0212328 1.0166024 1.0435078 1.0201944
1.011005 1.0372403 0.99044615 1.0135748 1.0398974 0.99953777 1.011532 1.0346749
1.0136782 1.015255 1.0118686 0.9977824 1.0172833 1.0222476 1.0236641 1.0374575
1.0177102 1.0139847 1.028817 1.0120958 1.0106192 1.0092783 1.025188 1.0243062
1.0054294 1.0252043 1.0041087 1.0156205 1.0184689 1.0180893 1.0172117 1.0249949
1.0098963 1.010639 1.0194086 1.0114036 1.0146549 1.0272887 1.0274446 1.0058887
1.0084981 1.0173717 1.0259246 1.0204262 1.0163835 1.0132896 1.0337859 1.0034301
1.0140482 1.0246078 1.0232747 1.0078374 1.0109435 1.0077021 1.0050762 1.0081974
1.0271779 1.0166831 1.0294943 1.0190655 1.0114676 1.0271946 1.0157747 1.0353192
1.0182341 1.0388379 1.0158607 1.0179255 1.0215234 1.02785 1.0000758 1.0164478

ConvBnRelu3.bn1.bias f4 [128]
00000000: b3a7 8fbb f1d1 8ebc f5b9 2f3c 7e3c 8ebb
00000010: ea12 9abb 0014 14bc c058 6ebc 2f0e 1bbc
00000020: 7502 ba39 f4f2 90ba 438c 9bbb 86df a03b
00000030: 67ba dcba c793 9fbb 7e2b 2fbc 7a6b 87b9
00000040: be01 bbba 1fcd 94bc 0aa5 5bbb 1aa0 b1bb
00000050: 5d5d 53bb 4749 8dbc 2647 42bb 4f3d c1bc
00000060: 680c 4a3c f3f0 51bc a4e4 82ba a9e5 193c
00000070: c63d e2b9 ef53 e4bb a127 7bbc 23fe c5bc
00000080: f585 7dbc 6521 c3bb 3a80 ca38 55a5 7ebc
00000090: f582 2fbb 24db 96bb aff9 a5bb 580c 20bb
000000a0: c3b1 ed3a f7ae d2bc f91f ceba d486 cfbb
000000b0: 25f2 613b c2fc 503b 8d94 57bb 5e7a bcbc
000000c0: 7196 dfbb c4c4 94ba baaf e0bb 32e7 a5bb
000000d0: af34 523b 7679 37ba 75dc 323c ef30 b83b
000000e0: 0b6c 43bb b63c cb3b 24c2 c1bc 5492 9bba
000000f0: 3aec 693c d482 7abc 207f 2abc ee44 883a
00000100: 4787 46bc 1b7f 44bc 876a c1ba deb4 56bb
00000110: 4458 ca3a fca5 bdbc d2b1 c6bb c43d 40bc
00000120: 373e 80bb ec5f 53bb 4e44 5d3b c4c7 e0bb
00000130: a907 90b8 ef29 48bc 2f21 3cbc 5c80 213c
00000140: c8d5 3f3b 5724 c239 3556 06bc 3b16 9dbb
00000150: fe29 23bc ee9e cabb 74df 37bc 59f7 c43b
00000160: af51 0dbc 5f37 efba 6e0f b2bb 0041 efba
00000170: e05e 6c3b a8c7 03bb f1e2 db3b ec81 93ba
00000180: 0700 283b a59b 6bbb 004b 9139 4335 fabb
00000190: 38c5 0e3c b4cf 60bc c087 703c 7ac3 4dbc
000001a0: a27f b0bb 7db6 16bc d8b7 5eba cdd7 493c
000001b0: 4eac 143c afee b73a 1366 50bc b169 89bc
000001c0: 0651 d1bb 9f65 c9bb be0a aa3b b65b 54bb
000001d0: b956 7dbc 450f ff3a 680c f13a d224 b83b
000001e0: fe24 bb3b 20ce 883c a9ee 7d3b a198 37bc
000001f0: 28a5 e1bb 3daf 66bb 274b b0bc 7dc6 12bc
-0.004384005 -0.017434092 0.010725488 -0.0043407073 -0.0047019618 -0.0090379715 -0.014547527 -0.009463831
0.00035478515 -0.0011058734 -0.004746945 0.0049094586 -0.001684022 -0.0048699114 -0.010691522 -0.00025829283
-0.0014267487 -0.018164216 -0.003351512 -0.005420697 -0.0032251694 -0.017246855 -0.0029644459 -0.023588805
0.012332059 -0.012813794 -0.0009986353 0.009393134 -0.00043152104 -0.0069680135 -0.0153292725 -0.024169033
-0.015473832 -0.0059549087 9.655995e-05 -0.015542348 -0.0026780937 -0.0046037603 -0.005065165 -0.002442142
0.0018134642 -0.025718195 -0.0015726081 -0.0063332114 0.0034476605 0.0031888937 -0.003289494 -0.023007568
-0.006823354 -0.0011350145 -0.0068568857 -0.005062961 0.003207486 -0.0006998995 0.010916819 0.0056210677
-0.0029819037 0.0062023057 -0.023652144 -0.0011869171 0.014277512 -0.015289981 -0.0104062855 0.0010396519
-0.012117214 -0.011993195 -0.0014756479 -0.0032761614 0.0015437682 -0.023150437 -0.0060636783 -0.011733476
-0.0039136666 -0.0032253219 0.0033762637 -0.0068597514 -6.867882e-05 -0.012217029 -0.011482521 0.009857263
0.002927171 0.0003702964 -0.008199264 -0.00479391 -0.009958742 -0.0061834967 -0.011222709 0.0060109315
-0.008625432 -0.0018250755 -0.0054339683 -0.0018253624 0.0036067292 -0.0020108018 0.006710403 -0.001125393
0.0025634782 -0.0035950926 0.00027712435 -0.007635744 0.008714013 -0.013721395 0.014680803 -0.012558812
-0.0053863088 -0.009198782 -0.0008496023 0.012319517 0.009074284 0.0014032925 -0.012719649 -0.01677403
-0.0063878326 -0.0061461474 0.005189269 -0.0032403297 -0.015462571 0.0019459507 0.0018390538 0.0056196237
0.005711197 0.01669985 0.003874699 -0.011205823 -0.0068861432 -0.0035199665 -0.02152021 -0.008958456

ConvBnRelu3.bn1.running_mean f4 [128]
00000000: 07a2 6cbf 32e7 593f 9122 31be baa0 3a3e
00000010: ef94 10be 21ce 4fbf cb20 8c3e c7f4 04bd
00000020: 843e 823e 1ca3 bb3e 5b68 5c3e 9b4b dcbe
00000030: 4921 0dbe a890 683e 3554 ee3e 41e8 00be
00000040: 09e7 613d 680a 32bf b0e5 10be 3ce6 b5bf
00000050: 6ece cdbe f069 0c3e 734d 5cbd 22fd 5e3e
00000060: c2d2 8a3e e4f7 a2bf 6f98 a7be 29df ffbe
00000070: 02b8 333f f76a bb3e 9cdb 473e f608 183e
00000080: cf23 0bbf f58f 823e 1732 74bf b7a3 bd3e
00000090: adb1 a9bf 9411 ba3d a15c 233e 4db8 9a3c
000000a0: 4fa8 a33f 5145 a53e e3bf d43e 7231 a03e
000000b0: a33d ab3e e944 bb3d f377 c53e 166c a63d
000000c0: 5eb7 00be 62e7 f3be b42d 46bf acd7 22be
000000d0: 0700 343f 1ffa 6bbf 2a58 f6bd b540 2abf
000000e0: 0730 9bbe 694f 863d c373 8a3f b6b2 483e
000000f0: 1e54 173e a267 29bd ea8e f6be f379 72bf
00000100: 750b 04bf 6955 b7bb de40 04be 9a65 033f
00000110: dddc 3dbf 9749 1dbe 01ca bdbe 51d4 80be
00000120: 0ac9 08bf d22b 533e afa7 6b3e fbcc 6a3e
00000130: b80a e93e 1319 c4be 0eee 85bf 6897 fe3e
00000140: 4144 763c f06a 52be 9082 2ebc 6188 573e
00000150: c520 803e 68ca 653f 9cde 1bbf 0c03 3ebf
00000160: a9e5 943e a6a0 abbe 0c1f 90be 117a 4c3e
00000170: a6ef 00bf 0984 0bbe 4d7c 593f 6cd0 6b3e
00000180: e6b2 b83d 4841 18bf f5e0 2c3e 9a90 ad3e
00000190: 5a4a 363e 10d7 ffbd 834c 5fbf 264a 3c3e
000001a0: 06c5 023f 9f74 a33e 0c1b 46bf 85a3 f03d
000001b0: 9d3d 72be 2dd9 ff3e a474 b93e aa29 f23d
000001c0: 5812 153e 2bae ad3e 8062 0ebe 3bea 5b3d
000001d0: 3290 cb3e 9b84 6e3e 81d8 933e f924 22bf
000001e0: 6ca8 4ebf 1a4d 52be da6a a43d 0dbd 9bbe
000001f0: 8a09 afbf 356d 963d 2f2d d93e 92a8 ffbe
-0.92434734 0.851184 -0.17298342 0.18225375 -0.14119314 -0.811739 0.2736877 -0.03246
0.2543832 0.3664788 0.21524183 -0.43026432 -0.13782229 0.22711432 0.4654862 -0.12588598
0.055151973 -0.6954713 -0.14150119 -1.4210887 -0.40196556 0.13712287 -0.0537848 0.2177625
0.2711392 -1.27319 -0.32733485 -0.49974945 0.7020265 0.36605045 0.19517368 0.14847168
-0.54351515 0.25500455 -0.9538893 0.37038967 -1.3257347 0.09085384 0.15953304 0.01888671
1.2785739 0.32279447 0.41552648 0.31287724 0.33445463 0.09144003 0.38568076 0.081260845
-0.12569949 -0.4763747 -0.7741349 -0.15902585 0.7031254 -0.9217853 -0.12028535 -0.66504985
-0.3031008 0.06558115 1.0816578 0.19599423 0.14778182 -0.041358598 -0.4815591 -0.9471733
-0.5157998 -0.0055948985 -0.1291537 0.51326907 -0.74165136 -0.15360104 -0.3706818 -0.25161985
-0.5343176 0.20622185 0.23013185 0.22929756 0.4551599 -0.3830038 -1.0463274 0.4972489
0.015030921 -0.20548606 -0.010651246 0.21048118 0.25025 0.8976197 -0.6088655 -0.742234
0.29081467 -0.33521003 -0.28148687 0.1996844 -0.50365674 -0.13624586 0.8495529 0.23028725
0.09018497 -0.5947461 0.1688269 0.33899385 0.178018 -0.12492192 -0.8722612 0.1838766
0.51081884 0.31924912 -0.7738502 0.11749939 -0.23656316 0.4997038 0.36221802 0.11824353
0.14557779 0.33921942 -0.13904762 0.053690176 0.3975845 0.23292772 0.28876117 -0.63337666
-0.8072574 -0.20537224 0.08028193 -0.30417672 -1.3674786 0.07345048 0.42417285 -0.49933296

ConvBnRelu3.bn1.running_var f4 [128]
00000000: 66de 9b3e a867 833e e490 8a3e a8de 733e
00000010: 9ecb b93e df40 8c3e 8537 0d3f 807b 5b3e
00000020: a6f6 ad3e 769b 6c3e 83a8 b43e 305e 493e
00000030: 10ca 883e 63a7 713e d434 843e e6ba 583e
00000040: 49a2 4d3e bbd5 083f f304 b03e 2f68 aa3e
00000050: 7d84 753e 3700 503e 4da9 693e 8ddc 943e
00000060: 7f0a 8b3e 9571 cd3e b2bf 7d3e b706 d83e
00000070: 93b0 903e cbfc 4e3e e21a 973e e502 a53e
00000080: 5117 cb3e 5cc7 8d3e da91 d43e 7a4a 5d3e
00000090: 4b6d f43e 3ea1 7e3e ac12 7c3e 8df3 483e
000000a0: 842a b73e 034e db3e 8696 ab3e 1f67 993e
000000b0: adca a13e 0d59 763e 0376 5d3e 490f d63e
000000c0: 633c 253e 2fa9 263e cc22 693e c46d bd3e
000000d0: c85d ae3e 9957 ab3e 264c a63e 22a5 e93e
000000e0: 7ee1 1f3e b913 883e bc91 a93e 2730 973e
000000f0: 8ad1 8e3e e3a9 c53e 4a2b a73e f36b 9e3e
00000100: 3200 6c3e e050 363e bf0c 853e 555b a23e
00000110: 2853 1d3f 8b26 603e ab8d 693e 44b2 4c3e
00000120: 3452 7b3e 9ef7 7e3e e8cf 6f3e 9b19 763e
00000130: 6b46 973e a828 7b3e 278d a23e df3c 933e
00000140: 8a9d 533e eecb a73e 8373 af3e 9fbc 513e
00000150: 7e47 7b3e a5ed ac3e 86c6 503e f07b c83e
00000160: d50c b63e b20e 9d3e 28c4 743e add4 363e
00000170: 5cc7 383e 312e 753e b244 9c3e ca18 753e
00000180: 7ae2 703e 5df1 663e bb19 be3e f76f 863e
00000190: 4c74 293e b46d 773e 574f a03e 21d4 123e
000001a0: 3936 923e 8b25 4b3e db78 833e f6a6 333e
000001b0: 63a8 8c3e 47ff 4f3e c0ee 8e3e b7a2 493e
000001c0: ef6a 873e 15ad af3e c13b 7d3e 0316 9a3e
000001d0: 1a01 503e 8776 b43e 257f 793e 5d9f c03e
000001e0: 9b7e af3e 23cc 503e 4900 773e 79f6 8f3e
000001f0: 0050 fc3e 960b 4e3e 31db 853e 0611 7e3e
0.30443114 0.2566502 0.27063668 0.23815405 0.3628816 0.27393243 0.5516284 0.2143383
0.3397724 0.23106179 0.35284814 0.19664836 0.2671666 0.23599009 0.25821555 0.21165046
0.20081438 0.53451127 0.34378776 0.3328261 0.23976322 0.20312582 0.2281849 0.29074517
0.27156445 0.4012572 0.24780157 0.42192623 0.28259715 0.2021362 0.29512697 0.3222877
0.39666227 0.27691162 0.41517526 0.21610442 0.47739634 0.24866197 0.24616498 0.19624157
0.35774624 0.42832956 0.33513278 0.29961488 0.31599942 0.24057408 0.21627049 0.41808537
0.16136317 0.16275476 0.2276718 0.36997807 0.34055924 0.3346527 0.32479972 0.456338
0.15613362 0.26577547 0.33119 0.29528925 0.2789424 0.38606176 0.32650214 0.30941734
0.2304695 0.17804289 0.25986287 0.31710306 0.6145501 0.21889703 0.22807948 0.19989878
0.24543077 0.24899146 0.23419154 0.24033205 0.29545912 0.24527228 0.31748316 0.28757378
0.20665565 0.32772774 0.34267816 0.2048211 0.24538991 0.33775058 0.2038823 0.39157057
0.35556665 0.30675274 0.23902953 0.17854567 0.180448 0.23943402 0.3052116 0.23935238
0.23523894 0.2255301 0.37129006 0.26257297 0.1654827 0.24162942 0.31310531 0.14338733
0.28556994 0.1983854 0.25678143 0.1754416 0.2747222 0.20312224 0.27916527 0.19690977
0.2644877 0.3431174 0.24729826 0.3009492 0.2031292 0.3524668 0.24364908 0.37621585
0.3427628 0.20390372 0.24121203 0.2811773 0.49279785 0.20121607 0.26143792 0.24811181

fc.weight f4 [10, 6272]
00000000: 8118 41bb c4d2 40bc b97b 313c 89bf 933c
00000010: b40e 863a 63e4 cfbc ea83 05bc 13eb 4f3a
00000020: 8420 623c 5c34 333c e9e9 8f3b 2ba5 ffbb
00000030: c3f9 0b3c 2050 84bb b3cb 5b3c 5bf1 6fbb
00000040: 2dd5 833c 2028 513c 06f5 85ba 3f6b b1ba
00000050: 2a75 7ab9 f105 5f3c dbda 89bb c351 243c
00000060: fa9b 04bb 6ad7 0d3c c62c ba3b e163 b9bb
00000070: 5c0a 82bb bbfa 83bb a81d 55ba b482 ffb9
00000080: d61d aabb afb8 47bc 9651 573c 4805 463b
00000090: 6e47 37bc 0973 0dbc f392 b43c d8bf 823c
000000a0: 5d03 a0bb 97f4 e639 4099 f13a 681a 72bb
000000b0: 6f05 ac3c 5b8a 363c 144e 7e3b a171 bfbc
000000c0: b3d7 873c 0b30 ba3c 2067 d03a f068 a83b
000000d0: 2c72 2cbb 47ff 79bb d9df 73bc 8db0 a7ba
000000e0: 639a 853c 91ae 4fbc 3354 033c 4328 30bb
000000f0: b9aa 06bb 01e2 053c 9a3d 403c bf53 fb3c
00000100: c55b 143c 0ae7 713c bc39 1f3b ad41 06bc
00000110: f673 c03b e048 6dbc f136 a9bc c13f 2aba
00000120: 79ec 853c 9a2a 9dbc e81c e2bb 6530 aabc
00000130: dd33 f2bc 74a3 433b b0b2 273c 1146 203c
00000140: b5d7 423c 68b1 283c 0685 023c ad8e c6bc
00000150: 6c3e 00bc c173 8ebb 2a78 e63a 3909 03bc
00000160: 0ad3 d6ba 3e6a 4cbb d566 b43a 7db8 2539
00000170: 7033 293b 3a90 88ba c075 b8ba dc41 373c
00000180: 431c 813b 75b8 693c ddba ae3a 4c0a f33a
00000190: 296b 903c c2fa 6c3c 7490 92bb abb6 6dbc
000001a0: 4faf 3e3c ee97 2abc d0e5 933b 020b 0ab9
000001b0: 43ec 563c 2e4f 553c 40db fd3a 2d9d 943b
000001c0: abf9 813b 5d77 08bd 2a3c 31bc 5769 2ebc
000001d0: 2b45 8f3b 329b 8bbc edb0 0b3c 0add 883c
000001e0: 6dc3 69bc 7e30 9fbc e9a5 e2ba 43ed a539
000001f0: 9283 dc3b a018 0abb e6a2 7fbc 9690 af3b
00000200: c44c b4bc 3085 83bb 395d 77bb 7a01 c03b
00000210: 3caf 553c b87b 253c 762a 483b 0cd7 69bc
00000220: d5e5 60bc 2f2d 7cbc 1bb3 883c ad8f a3bb
00000230: 1385 2cbc 083e 7dbb 6b89 44bc 2dcd cc3b
00000240: e1f1 813c 3797 31bb 2dac 273c cd86 3bbc
00000250: 25e1 81bc 5e93 b8b9 df0a f23b d154 633b
00000260: 2ae1 d23c 4b2d a2b9 a31d b23b 7b72 453b
00000270: 3189 44bb a2d5 4abc eccc abbc 8718 3dba
00000280: 76ad a63b 10f7 6b3b cd65 7e3a 5e1a 48bb
00000290: d0ee 47bb bdd9 00bc 4408 a1bb 122f 413c
000002a0: c2a8 3d3c be6e 803b acfc 3e3b 6474 b1bc
000002b0: 10c3 5a3a c003 e1ba 7878 17bc 020d e6bc
000002c0: f2a2 b1bb 0800 623c 8efe 09ba d5b1 21bc
000002d0: 5380 3fbb 3608 813b d6b8 333b f657 e6bb
000002e0: bc4a 12bc fd01 60bb f507 f23b 7f38 42bc
000002f0: de14 12bc 217e 4abb 6579 abbc 8dbf 503c
00000300: b53c b8bb c063 adbb 6c7c fe3a 982d 79bc
00000310: 261c 643b 16fa ecbb a309 6a3b e899 5eba
00000320: f5c1 753c 407c 00bb 57b6 f83a 2b46 e93b
00000330: 245e b73b 1a29 1e3c 8940 19bc dd52 ebbb
00000340: e8f5 a33b 1b7a 70bc 9cd4 cb3b 405b 913a
00000350: bc03 5ebb 6481 c33b 91f1 91bb 4ca3 b33b
00000360: be03 cfbc fe77 cfbb 77c9 1bbb 6b74 9c3b
00000370: 1d14 49bc b61c 8bbb 034d 98bc 003b 9ebc
00000380: 774a 8ebc 0706 933b ab41 09bc cbdc 313c
00000390: 5632 75bc 4bf3 aebc e711 d8bc d4a3 29bb
000003a0: a8bc 563c fefb 30bc a639 b1bb 3650 d1bb
000003b0: 4341 e2bc 584d 70bc 720f d2bc dcb4 d1bb
000003c0: 0f83 2cbc 57ec 2cbc 2578 0a3b 36da e83a
000003d0: cf2e bd39 379c b2bb 4ce2 e3bb 42bb 443c
000003e0: ce82 49bc 3fd7 f6bb fe9c 303c 1963 dfba
000003f0: 6b4d 17bb d7ac 4c3c 4271 473b ebfc a73c
-0.0029464068 -0.011769 0.01083272 0.018035667 0.001022777 -0.025377458 -0.008149127 0.0007931452
0.013801698 0.010937776 0.004391898 -0.007801672 0.008543435 -0.004037872 0.013415265 -0.0036612365
0.016092861 0.012765914 -0.0010220117 -0.001353599 -0.00023885505 0.013612256 -0.004206998 0.010029259
-0.002023457 0.008657316 0.005681607 -0.0056576584 -0.00396852 -0.004027692 -0.00081297243 -0.00048734772
-0.005191545 -0.012190028 0.01314201 0.003021555 -0.011186464 -0.008633384 0.022042727 0.015960619
-0.0048832134 0.00044051252 0.0018432513 -0.003694201 0.020998685 0.011141385 0.0038803862 -0.023369612
0.016582346 0.022727987 0.0015899874 0.0051394626 -0.002631317 -0.0038146542 -0.014884912 -0.0012793705
0.016308969 -0.012675897 0.00801568 -0.0026879467 -0.0020548536 0.008171559 0.011733437 0.030679582
0.009055083 0.014764557 0.0024295887 -0.008194369 0.0058731986 -0.014482707 -0.02065608 -0.00064944854
0.01634811 -0.019185353 -0.0069004185 -0.02077503 -0.029565746 0.0029852064 0.0102354735 0.00978233
0.011892249 0.010296203 0.007966286 -0.024237955 -0.007827383 -0.004347295 0.0017583419 -0.007997804
-0.0016389799 -0.0031191255 0.0013763556 0.00015804353 0.0025818013 -0.001041896 -0.0014073178 0.011185136
0.0039401366 0.014265169 0.0013330836 0.0018542497 0.017629223 0.014464082 -0.0044727866 -0.0145088835
0.0116384765 -0.010412199 0.00451348 -0.00013164806 0.013117853 0.013019366 0.001936771 0.0045353384
0.0039665303 -0.03331696 -0.010817567 -0.010645232 0.004372259 -0.017041776 0.008526069 0.016706962
-0.014267785 -0.019432303 -0.0017291877 0.00031648026 0.0067295516 -0.0021071807 -0.015602803 0.005357812
-0.022009261 -0.00401368 -0.0037744774 0.005859551 0.013042267 0.010100298 0.0030542887 -0.014272463
-0.013726671 -0.015391632 0.016686967 -0.0049914927 -0.010529774 -0.003864171 -0.011995654 0.006250045
0.015862407 -0.0027098188 0.010233921 -0.011445713 -0.015854428 -0.00035205012 0.00738655 0.0034688006
0.025742132 -0.00030932794 0.005435662 0.003012805 -0.0029989 -0.012380036 -0.020971738 -0.00072134327
0.005086596 0.0036005415 0.00097045006 -0.0030533294 -0.0030507334 -0.007864413 -0.0049143154 0.011791008
0.0115758795 0.0039194515 0.0029142303 -0.021661945 0.00083451066 -0.0017167255 -0.009245031 -0.028082374
-0.005421036 0.013793953 -0.0005264067 -0.009869059 -0.0029220774 0.0039377464 0.0027423403 -0.0070295287
-0.008928951 -0.0034180873 0.0073862025 -0.01185429 -0.008916108 -0.0030897933 -0.020931909 0.012740982
-0.005622471 -0.005291432 0.0019415743 -0.015208624 0.0034806817 -0.007231961 0.003571131 -0.0008491562
0.014999856 -0.0019605309 0.001897524 0.0071189604 0.0055959392 0.009653354 -0.009353765 -0.007181509
0.0050036795 -0.01467755 0.0062204134 0.0011089817 -0.0033876738 0.0059663523 -0.004453846 0.005482113
-0.02527034 -0.006331443 -0.0023771205 0.0047746203 -0.012272862 -0.004245366 -0.01859141 -0.019315243
-0.017369492 0.0044868025 -0.008377473 0.010855864 -0.014965614 -0.021356246 -0.026375724 -0.0025885003
0.013106503 -0.010802267 -0.0054084836 -0.0063877357 -0.02761901 -0.014666878 -0.02564213 -0.006399734
-0.010529294 -0.010554395 0.002112874 0.0017765227 0.00036083764 -0.005450751 -0.006954467 0.012007536
-0.012299253 -0.0075329836 0.010779617 -0.0017043083 -0.0023086916 0.01249238 0.0030432497 0.020506343
